iris_model.tflite (tflite, 3060 bytes, 6 tensors)

arith.constant f4 [3, 16]
00000000: 3bef 63bf 211e 053f 8f71 8a3d 6e9f 51be
00000010: 9f5c 49bf f9e9 17bf a2bb cd3e cee3 353f
00000020: f696 f7be 1ecc f9be 818e 973e c594 3a3f
00000030: ea2d dfbe 0d07 d03d a2ab 1e3d b9a5 acbd
00000040: 18f2 4dbe a52b 2dbf 9ed8 b83e ff0f a0be
00000050: 869b 73be edc7 513f 6ad4 32bf 14e3 e0be
00000060: 7e2e 213f e165 e0be d7d8 f1be d413 333f
00000070: b4c0 0eba 2b45 7cbd eb5c e63d df35 9cbe
00000080: cd3f 1c3d 5ffd dd3e 8f73 80bf 487e cdbe
00000090: 6eee 453e 17e0 debe d7f0 dc3e 1d95 5cbe
000000a0: e948 d2be 4af1 583d cb85 2e3e 3406 22bf
000000b0: 639c 2e3f b55a 2f3f cec3 4abf ccea 413e
-0.8903691 0.519991 0.06759941 -0.20470974 -0.78656954 -0.5934139 0.40182215 0.7105073
-0.48357362 -0.48788542 0.2960091 0.72883254 -0.43589717 0.10157595 0.0387379 -0.084300466
-0.20111883 -0.6764472 0.36102766 -0.31262204 -0.23789796 0.8194569 -0.6985537 -0.43923247
0.62961566 -0.43827727 -0.47235748 0.6995213 -0.0005445585 -0.0615894 0.112481914 -0.3050985
0.038146783 0.4335737 -1.0035266 -0.40135407 0.19329235 -0.43530342 0.43152496 -0.21541257
-0.4107125 0.052964486 0.17043225 -0.63290715 0.6820738 0.6849778 -0.79205024 0.18937224

arith.constant1 f4 [16, 8]
00000000: c215 5a3e 1a9c 0d3e b529 1f3f 619b 1c3d
00000010: a426 2a3c 572f 1a3f e7b1 d3be 6b55 01bd
00000020: b124 ce3e 3a85 b6be 3d05 ebbb 495b f2be
00000030: 50d4 913e fdad df3e 4608 fa3e d267 a83e
00000040: e530 523d 4520 76be 68e0 3fbe 25c8 d63d
00000050: bda8 923e 8c05 95be 34f5 623e 7f7a 383e
00000060: eb68 e1be 8cd2 cebe e20e fcbe a1bb 4ebd
00000070: 9c53 ae3e fb99 813e 449a 10bf ea89 c43e
00000080: df48 17bf 6ed7 8b3e c508 bc3b 22e7 883e
00000090: ec09 92bd f449 4a3f eda9 95bd b973 db3d
000000a0: 5fc2 443e f6d4 5cbe 7102 dbbe d9e3 5dbe
000000b0: 1309 c8bd 82ab cf3d c8cf b4be 4031 ff3e
000000c0: ff3e c1be 3996 fabd 8998 9a3e 4849 86be
000000d0: c8c3 e03e 780d 80bc 98c4 2d3f cffc d93d
000000e0: d0f4 2b3f b2b1 b8be 1e72 ac3c e33f 8c3e
000000f0: 80f9 763e abdf 1dbf 2c3e 0abd 37b9 f0be
00000100: 09bc ca3e c90d c33d 3871 37be e996 ed3c
00000110: 3683 4fbe 5364 b5be 7632 c3be 23df 1b3f
00000120: 6042 c9be 1e65 65bd 313e df3e 01e8 0b3e
00000130: cfab bcbd 5b56 943e c466 5cbe c3dd 7e3d
00000140: 123f 0f3f 8752 803e 5d49 f7be 0c43 e0be
00000150: 244b 9f3d 7d40 bf3d 692e cb3e 103f 9c3d
00000160: c366 133e 5317 6bbe ab54 66be 6ba2 cdbe
00000170: 9591 393e 48b0 71be 9bc7 9f3e a5b4 cd3e
00000180: d767 e7be a029 083e b716 2b3f 87f5 8cbe
00000190: 9bf1 02be ce7f 9c3e 3ab7 c73e bd4a 123e
000001a0: 5463 2abf d665 cdbd ea37 173f 203e e33e
000001b0: acc2 cfbe b080 233f 7f52 9fbe 31cc 9bbe
000001c0: 4360 2f3f b088 95bd 3151 483e 5d92 583e
000001d0: b8d2 293f f709 dbbe 4747 3cbe 1c4d c8bd
000001e0: e827 4dbe fabe cdbe bb30 a73e 02f4 233e
000001f0: 8c8f f3be dc20 d73e f592 62be 1103 843e
0.21297362 0.1382908 0.62173015 0.03823412 0.010385189 0.60228485 -0.41346666 -0.0315756
0.40262368 -0.3564852 -0.0071722553 -0.4733527 0.28482294 0.4368743 0.48834437 0.3289171
0.05131616 -0.24035747 -0.18737948 0.10487393 0.28644362 -0.29105794 0.2216385 0.18015479
-0.4402536 -0.4039501 -0.49230105 -0.050471906 0.34048164 0.2531279 -0.5648539 0.3838647
-0.5909557 0.27312797 0.00573835 0.2673884 -0.07130799 0.79019094 -0.073078014 0.10715432
0.19214772 -0.21565613 -0.427753 -0.21668948 -0.09767356 0.101401344 -0.35314775 0.49842262
-0.37743375 -0.12235684 0.301945 -0.26227784 0.4389937 -0.015631422 0.67878103 0.106439225
0.6717043 -0.3607307 0.021050509 0.27392492 0.24118614 -0.61669415 -0.033750698 -0.47016308
0.39596584 0.09524114 -0.17914283 0.029002624 -0.20264897 -0.35428104 -0.38124436 0.60887355
-0.39308453 -0.056004636 0.43602136 0.13662721 -0.092124574 0.28972134 -0.21523577 0.062223207
0.5595561 0.25062963 -0.4829816 -0.43801153 0.07778004 0.09338472 0.39683846 0.07629216
0.14394669 -0.22958116 -0.22493236 -0.40162978 0.18121941 -0.23602402 0.31206974 0.40176883
-0.4519641 0.13297129 0.66831535 -0.27531072 -0.12787478 0.30566257 0.39006978 0.14286323
-0.6655781 -0.10029189 0.59069693 0.44383335 -0.4057821 0.63868237 -0.31117627 -0.30429223
0.6850626 -0.07301462 0.19562222 0.21149583 0.66337156 -0.4278104 -0.18386565 -0.097803324
-0.20034754 -0.40184766 0.32654366 0.1601105 -0.47570455 0.42017257 -0.22126372 0.2578359

arith.constant2 f4 [3]
00000000: c765 11be 05d9 773e 16cb 32be
-0.14198981 0.2420388 -0.17460284

sequential_1/dense_1_2/BiasAdd/ReadVariableOp f4 [16]
00000000: 2e0d 8a3e be0e 2ebe 8cc4 bc3e a169 f9bd
00000010: 8380 673e 729c ab3e 4aed 66bd 1ed5 1d3e
00000020: a078 a23e cf08 a7bd edcd 49bd 72a7 553e
00000030: 9002 d6bb 90d9 95bd cdab a43e 0f86 33be
0.2696318 -0.16997811 0.36868703 -0.1217835 0.22607617 0.33517796 -0.05637864 0.15413329
0.31732655 -0.08155977 -0.04926865 0.20864657 -0.006531067 -0.073168874 0.32162324 -0.17531608

sequential_1/dense_1/BiasAdd/ReadVariableOp f4 [8]
00000000: c6e2 b73e 5b78 2f3d db38 26bd b7e5 92bd
00000010: 205c 5b3e 7360 94bd 2bca bb3d c9e0 e73d
0.35915202 0.04283939 -0.040581565 -0.07172721 0.21421862 -0.07244959 0.0916942 0.11322171

sequential_1/dense_1/MatMul f4 [8, 4]
00000000: b239 143f f2ad 893e b405 53bf 94a6 87be
00000010: f839 d13e 46f2 6ebc be5a 013e ead6 e3bc
00000020: 3b75 123f b934 3ebe a120 8d3e a0d9 c93e
00000030: 1fdb b73e 8a1d a8be 378c 483c acbc d4bd
00000040: 4a83 48be 46ae 433f 0b50 79be 7c13 debc
00000050: da00 7cbe 1cc6 a03a 83ec 273f 1241 0d3f
00000060: 6822 9d3d a7f6 4c3e 8fa0 2fbf 4453 f5be
00000070: d88b 0e3f addb 2cbf 9c6a 083f 8a4b adbe
0.57900536 0.26890522 -0.8243058 -0.26494277 0.4086454 -0.01458413 0.12632272 -0.02781244
0.5721013 -0.185748 0.27563956 0.39423847 0.35909364 -0.32835037 0.012240461 -0.10387549
-0.19581333 0.76437795 -0.2434694 -0.0271089 -0.246097 0.0012266072 0.65595263 0.55177414
0.07672578 0.20015965 -0.6860437 -0.4791509 0.55682135 -0.675227 0.53287673 -0.33846694
